src/smarc_modelling/piml/models/nn.pt (torch, 5510 bytes, 14 tensors)

layers.0.weight f4 [2, 12]
0	0xbaf0c273	-0.0018368497
1	0xbda98ec8	-0.082791865
2	0x3e7a6796	0.24453577
3	0xbd0db39a	-0.03459511
4	0x3d95a4b9	0.07306809
5	0xbd468f65	-0.048476595
6	0x3df38247	0.11890083
7	0x3c018051	0.007904128
8	0xbd7864d1	-0.06064302
9	0xbe73f8b2	-0.23825338
10	0x3ca8c20a	0.020600338
11	0x3e41cc06	0.18925485
12	0x3e4e5391	0.20149066
13	0x3e0342f3	0.12818508
14	0xbd9b4cd8	-0.07583016
15	0x3e672803	0.22573857
16	0xbe33c9c9	-0.17557444
17	0xbde7a0a2	-0.11309935
18	0xbe89a93f	-0.26886937
19	0x3de2c01d	0.11071799
20	0x3e32efcf	0.17474292
21	0xbdb13686	-0.08652978
22	0x3e427447	0.18989669
23	0x3dacdc82	0.08440496

layers.0.bias f4 [2]
0	0x3e732766	0.23745498
1	0x3e618f9d	0.2202744

layers.1.weight f4 [2, 2]
0	0xbe858c61	-0.26083663
1	0xbdb859e6	-0.09001522
2	0xbe02f794	-0.12789756
3	0xbf18474b	-0.59483784

layers.1.bias f4 [2]
0	0x3f0bab86	0.545586
1	0x3cab4e69	0.020911412

layers.2.weight f4 [2, 2]
0	0xbd02a44b	-0.031894963
1	0xbe3e1c6a	-0.18565527
2	0xbf014ebf	-0.5051078
3	0xbef96016	-0.4870612

layers.2.bias f4 [2]
0	0xbef3cbcc	-0.47616422
1	0xbe2123d6	-0.15736327

layers.3.weight f4 [2, 2]
0	0xbf111d6e	-0.5668553
1	0x3f12cff6	0.57348573
2	0xbc0f4bfe	-0.008746145
3	0x3e7a4d87	0.24443637

layers.3.bias f4 [2]
0	0xbecae9be	-0.39631456
1	0x3ef16bbd	0.4715251

layers.4.weight f4 [2, 2]
0	0xbefd91ea	-0.49525386
1	0x3e02f6b7	0.12789427
2	0xbde894f4	-0.113565356
3	0xbe0feb3f	-0.14054583

layers.4.bias f4 [2]
0	0xbeb28ffa	-0.3487547
1	0xbf194b58	-0.5988059

output_layer.weight f4 [36, 2]
0	0xbde3757e	-0.11106394
1	0x3f22f26a	0.63651145
2	0xbf02318d	-0.5085686
3	0x3f046efe	0.5173186
4	0xbee4576f	-0.44597957
5	0xbf2fe043	-0.6870157
6	0xbf19fdca	-0.60152876
7	0xbd446e9b	-0.047957044
8	0xbef651b2	-0.48109204
9	0x3e5ecb1f	0.21757172
10	0x3e5f7d89	0.21825232
11	0xbf0e8a1b	-0.5567948
12	0x3ef7d820	0.48407078
13	0x3ebbbef4	0.36669123
14	0xbed7b734	-0.4213196
15	0x3e40e347	0.188367
16	0xbc3ae5ac	-0.011407297
17	0xbf110f2d	-0.5666378
18	0xbe0dd918	-0.13852346
19	0xbea6468f	-0.32475707
20	0x3ee4d130	0.44690847
21	0xbf208f93	-0.62719077
22	0xbef21a16	-0.47285527
23	0x3eade278	0.33961844
24	0xbe31e728	-0.17373335
25	0xbe87b537	-0.26505443
26	0xbf246ee8	-0.6423173
27	0xbc8242fa	-0.015901078
28	0x3cd46828	0.025928572
29	0x3ed6e406	0.41970843
30	0xbedd5d1b	-0.43235096
31	0xbeee8f52	-0.4659372
32	0xbf1ea11c	-0.61964583
33	0xbec47d44	-0.3837682
34	0xbee31320	-0.4435053
35	0xbf1654b0	-0.5872297
36	0xbf18a8e8	-0.5963273
37	0x3f077bde	0.5292338
38	0x3f0a0682	0.5391618
39	0x3e243e2e	0.16039345
40	0xbd64f595	-0.055898268
41	0x3f0d6e01	0.5524598
42	0x3ec7c7eb	0.39019713
43	0x3ddecb3b	0.10878607
44	0xbc50bd79	-0.012740486
45	0x3f00fe0a	0.5038763
46	0xbe1a79a7	-0.15085469
47	0x3ea3e1c8	0.32008195
48	0xbf2c8b9a	-0.67400515
49	0xbf16a0fb	-0.58839387
50	0x3d4d3f12	0.050108977
51	0xbf23a383	-0.63921374
52	0x3f03a0c5	0.5141719
53	0x3e841148	0.25794435
54	0xbdbec8f8	-0.093156755
55	0xbe5f3f87	-0.21801578
56	0xbe15d9a0	-0.14633799
57	0x3f2ef047	0.68335384
58	0xbf06889d	-0.52552205
59	0x3f00dd7e	0.5033797
60	0xbef60858	-0.4805324
61	0x3f2404f6	0.6407007
62	0xbde52ae2	-0.1118982
63	0xbecac493	-0.396031
64	0xbe588aac	-0.21146649
65	0xbe78b9ba	-0.24289599
66	0x3dd80b98	0.10549086
67	0x3e0587af	0.1304004
68	0x3f0570ae	0.5212506
69	0xbcc96d0e	-0.024588134
70	0xbe9c388b	-0.3051189
71	0x3ef55d6c	0.47922838

output_layer.bias f4 [36]
0	0x400b788d	2.1792328
1	0x4029b3d7	2.6516016
2	0x3fec63ea	1.8467991
3	0x3ca359a9	0.019940214
4	0x3f81da0f	1.0144671
5	0xbe04d792	-0.12972859
6	0xbfc8d1f9	-1.5689079
7	0x4001e8b8	2.029829
8	0xbff82c45	-1.938851
9	0xbf9a6fcd	-1.2065369
10	0xbfe284d3	-1.7696785
11	0x3e67747d	0.2260303
12	0xc009a6c4	-2.1508036
13	0x3ffbac86	1.9662025
14	0xc0269ae3	-2.6032035
15	0xbf27b00b	-0.65502995
16	0x3d3f3719	0.046683405
17	0x4020c12b	2.51179
18	0xbff04545	-1.8771139
19	0x40460cbe	3.0945277
20	0xc005a300	-2.0880737
21	0xbf96d258	-1.1782942
22	0xbfc405eb	-1.5314306
23	0xbfb06131	-1.377966
24	0x401d5093	2.4580429
25	0xbfe9d326	-1.8267562
26	0x404465b4	3.0687075
27	0x400f0efd	2.2352898
28	0x4031ad3d	2.7761986
29	0x4042645d	3.0373757
30	0xc00bf9d7	-2.187124
31	0x40060d7a	2.0945725
32	0xc01727fa	-2.361815
33	0xc0086968	-2.1314335
34	0xbfef3e2c	-1.8690848
35	0xbffcf353	-1.9761757

x_min f4 [12]
0	0xbf07f2e6	-0.5310501
1	0xbe7c384e	-0.24630854
2	0xbe8b413b	-0.27198204
3	0xc43d7bac	-757.9324
4	0xc159ed8e	-13.620497
5	0xc27a11da	-62.517433
6	0xbf800000	-1.0
7	0x424c0000	51.0
8	0xbdfa35d6	-0.122173
9	0xbdcccccd	-0.1
10	0xc4898000	-1100.0
11	0xc4898000	-1100.0

x_range f4 [12]
0	0x3f95d9de	1.1707113
1	0x3f121996	0.5707029
2	0x3ef41dee	0.47679085
3	0x443df5bf	759.8398
4	0x415d6491	13.837052
5	0x427cc672	63.193794
6	0x42780000	62.0
7	0x42440000	49.0
8	0x3e7a35d6	0.244346
9	0x3e4ccccd	0.2
10	0x44ed8000	1900.0
11	0x44ed8000	1900.0
